best_model.pth (torch, 871827 bytes, 14 tensors)

lstm.weight_ih_l0 f4 [512, 16]
0	0x3e574db7	0.2102574
1	0x3cafa05f	0.021438776
2	0x3e30ea3e	0.17276856
3	0x3e3131a9	0.173041
4	0xbe7c8898	-0.24661481
5	0xbca6195c	-0.020275764
6	0xbd67547b	-0.05647705
7	0xbe7188cd	-0.23587342
8	0x3cade003	0.021224981
9	0x3d97d05b	0.074127875
10	0x3db0eda5	0.08639077
11	0xbc66aa83	-0.014078739
12	0x3d88afa4	0.06674126
13	0x3eaedda8	0.34153485
14	0x3c367062	0.011135193
15	0x3e203421	0.15644886
16	0x3d114026	0.035461567
17	0x3e31f3e9	0.173782
18	0xbd46028f	-0.048342284
19	0x3d1ce86f	0.038307603
20	0x3dcdd28c	0.10049924
21	0xbe0a5bec	-0.13511628
22	0x3e01cb94	0.12675315
23	0x3db85dd1	0.09002269
24	0xbe70e4cc	-0.23524779
25	0xbd99ea31	-0.075153716
26	0x3d602b9b	0.054729085
27	0xbe8eca78	-0.27888846
28	0xbe476a67	-0.19474183
29	0xbdb4668a	-0.0880862
30	0xbe406393	-0.18787985
31	0xbd5567dc	-0.052101
32	0x3e137df8	0.14403522
33	0x3d92a32f	0.07160031
34	0x3e087c71	0.1332872
35	0xbd984cf9	-0.07436556
36	0xbe34b564	-0.1764732
37	0x3c987108	0.018608585
38	0x3dbf1421	0.09330011
39	0x3e06d005	0.1316529
40	0xbd8c6dc1	-0.068568714
41	0x3d2dbae3	0.042414557
42	0xbe0470a3	-0.12933592
43	0x3e40ecf0	0.18840384
44	0xbcf8b7c5	-0.030361066
45	0xbe50c481	-0.2038746
46	0xbd10f80b	-0.035392802
47	0x3cf33871	0.02969
48	0x3d5777aa	0.052604355
49	0xbb9b24dd	-0.004734619
50	0xbe128fb3	-0.1431263
51	0x3c85ad27	0.016317917
52	0x3deeeae9	0.11665899
53	0xbdef9a77	-0.11699384
54	0xbe4116e1	-0.18856384
55	0x3dce936e	0.10086714
56	0xbdb017c4	-0.08598283
57	0xbc5d2888	-0.013498433
58	0xbdb363bc	-0.08759257
59	0xbdc5ab45	-0.09651808
60	0x3e2666d8	0.1625017
61	0xbc95dd2f	-0.018293945
62	0xbddc0b1c	-0.107443064
63	0xbe0cbb87	-0.13743411
64	0xbe0503de	-0.12989756
65	0x3e001b84	0.12510496
66	0xbd2e86ec	-0.04260914
67	0x3e03d1d1	0.12873007
68	0x38b720f0	8.732255e-05
69	0x3e1c5f82	0.15270808
70	0x3da1ce65	0.07900695
71	0xbdd57142	-0.10421993
72	0x3d969d2d	0.07354198
73	0x3d9b199a	0.075732425
74	0x3bacf066	0.005277681
75	0xbe3ab6f6	-0.18233857
76	0x3d929e2f	0.071590774
77	0x3cce072a	0.0251499
78	0x3e0b705c	0.1361708
79	0x3d88e404	0.066841155
80	0xbd923265	-0.07138518
81	0xbd95d3a9	-0.073157616
82	0xbe0a5fe5	-0.13513143
83	0xbe14ab1b	-0.14518397
84	0x3d66e35b	0.056369167
85	0x3e80cace	0.25154728
86	0x3e7bfb8e	0.24607679
87	0x3e9c1d8a	0.30491287
88	0xbd20edc8	-0.039289266
89	0xbe4d7886	-0.20065507
90	0x3ce2ee5e	0.027701553
91	0x3dae8817	0.08522051
92	0x3dfe412f	0.124147765
93	0xbd7dddae	-0.06197899
94	0x3dc336f3	0.09531965
95	0xbd4522af	-0.04812878
96	0x3dac0c71	0.084008105
97	0xbde3e33e	-0.111273274
98	0x3ddbf7a6	0.107405946
99	0xbd800256	-0.062504455
100	0xbd3986f6	-0.045294724
101	0xbe1b94ec	-0.15193528
102	0xbdcad717	-0.099043064
103	0xbe5c8fa6	-0.21539173
104	0x3ddedcfe	0.10881995
105	0x3b438c97	0.0029838437
106	0xbe12033b	-0.14259045
107	0x3e1238ea	0.14279523
108	0x3e3f6afb	0.18693154
109	0x3e57925c	0.21051925
110	0xbcb4bf9a	-0.022064019
111	0x3e6357f3	0.22201519
112	0xbd9dedf0	-0.077113986
113	0xbe74aee6	-0.23894843
114	0xbdf91c57	-0.121636085
115	0x3ce94cec	0.028479062
116	0x3c85adbf	0.0163182
117	0xbb8131e0	-0.003942713
118	0x3e2457e0	0.16049147
119	0x3d108cab	0.0352904
120	0x3d47c502	0.048771866
121	0x3c9992f1	0.018746825
122	0x3e92e0dd	0.28687182
123	0x3ea6a3ae	0.32546753
124	0x3bf420e5	0.0074502104
125	0x3e2414f3	0.16023616
126	0x3e48754b	0.19575994
127	0x3c847239	0.016167747
128	0xbbb607e6	-0.005555141
129	0x3d26969f	0.040670987
130	0x3e82d69d	0.25554362
131	0x3d3518bc	0.04421304
132	0xbd1e570a	-0.038657226
133	0xbd846c05	-0.064659156
134	0xbdde4741	-0.10853434
135	0xbe87e49f	-0.26541612
136	0x3de96bc2	0.11397506
137	0x3d121dd3	0.035672974
138	0x3e77afad	0.24188109
139	0x3e07afe1	0.13250686
140	0xbe48f24f	-0.19623683
141	0x3c12490f	0.008928551
142	0xbe8ab199	-0.2708862
143	0x3caac2a2	0.020844761
144	0xbe7b74bb	-0.24556248
145	0xbe4a9f3e	-0.19787309
146	0xbcd7803f	-0.02630627
147	0x3c3610ff	0.011112451
148	0xbceeccfe	-0.029150482
149	0xbdf5bc91	-0.11998857
150	0xbe06a9d8	-0.13150728
151	0xbe19b0f9	-0.15008916
152	0xbd5369db	-0.051614624
153	0x3da400b3	0.08007946
154	0x3e384687	0.17995654
155	0xbcff8257	-0.03119008
156	0xbe957001	-0.29187015
157	0xbd9e84ca	-0.07740171
158	0xbeded198	-0.43519282
159	0xbe43e33f	-0.19129656
160	0xbd1c7960	-0.03820169
161	0xbe201375	-0.15632422
162	0x3dde1ed6	0.10845725
163	0x3ddb6e91	0.10714448
164	0xbd28c213	-0.04120071
165	0xbc78a110	-0.015175119
166	0xbdcbbb6e	-0.09947859
167	0xbde0f2cc	-0.1098381
168	0x3d855f7d	0.065123536
169	0x3d95b4aa	0.073098496
170	0xbd450003	-0.048095714
171	0x3dad3986	0.08458237
172	0xbd8ec7a1	-0.0697167
173	0x3d83d764	0.06437567
174	0x3d9cf145	0.07663206
175	0x3d9e97dd	0.07743809
176	0x3deab24c	0.11459789
177	0xbded94e2	-0.11600663
178	0x3df2ef34	0.118620306
179	0xbd0cd062	-0.034378417
180	0x3e316883	0.17325024
181	0x3cdb389c	0.026760392
182	0xbe339d5f	-0.17540501
183	0xbdf56bed	-0.11983476
184	0x3b356c7d	0.0027683072
185	0xbdcadad3	-0.09905019
186	0xbdd31619	-0.10306949
187	0xbe94d9a6	-0.29072303
188	0xbe1bd7be	-0.15219018
189	0x3dff3616	0.12461488
190	0x3d4ef4ac	0.050526306
191	0x3de2ac69	0.11068041
192	0x3e496681	0.19668008
193	0xbd3de57b	-0.046361428
194	0x3e9deea3	0.30846128
195	0xbdc3ad1d	-0.09554503
196	0x3e13a02b	0.14416568
197	0x3e93816f	0.28809687
198	0x3e2813fc	0.16413873
199	0x3d1ffcd4	0.039059475
200	0x3d7875c3	0.06065918
201	0xbd2ee348	-0.04269722
202	0xbb6aee77	-0.0035847703
203	0x3e8117aa	0.25213367
204	0x3c008130	0.007843301
205	0x3dcd92c0	0.10037756
206	0x3dfc3184	0.12314132
207	0xbd1405d1	-0.03613836
208	0x3e0fb354	0.14033252
209	0x3dc3679f	0.095412485
210	0x3c50042a	0.012696305
211	0x3db912f9	0.09036822
212	0xbdb0e379	-0.08637137
213	0xbcf749a5	-0.030186484
214	0xbe1b35d7	-0.15157257
215	0x3d4f58a6	0.05062165
216	0xbba1ecd0	-0.0049415603
217	0x3e434d96	0.19072565
218	0x3e7b4bd3	0.24540643
219	0x3db09730	0.08622587
220	0xbdd7bb91	-0.10533822
221	0xbc1543cb	-0.009110401
222	0xbe31f88c	-0.1737997
223	0x3dd5ed26	0.10445623
224	0x3e417215	0.18891175
225	0xbcbf4fda	-0.023353506
226	0x3e3483cd	0.17628403
227	0xbd94308c	-0.07235822
228	0x3d81fc59	0.063469596
229	0x3daf308a	0.0855418
230	0xbe4cc4f0	-0.19997
231	0x3d27586e	0.040855817
232	0x3d7bbb20	0.061457753
233	0x3e866304	0.26247418
234	0x3d11961a	0.03554354
235	0x3d2d7076	0.04234358
236	0xbd68cf70	-0.056838453
237	0xbdcf9cab	-0.10137304
238	0x3db2641d	0.08710501
239	0x3da538a0	0.08067441
240	0x3e196e81	0.1498356
241	0x3c83afe3	0.01607508
242	0x3e9523f3	0.2912899
243	0xbdff57c6	-0.12467913
244	0x3cf20654	0.029544033
245	0xbe63793b	-0.22214215
246	0xbd88752f	-0.06662976
247	0xbd3b6e45	-0.045759458
248	0x3c999d5a	0.018751789
249	0xbe4ca4ae	-0.19984695
250	0x3da97a1a	0.08275242
251	0x3c469256	0.01211985
252	0xbdd2a117	-0.10284632
253	0xbc93d25d	-0.018044645
254	0xbe60cac0	-0.21952343
255	0xbe1b65f1	-0.15175606

lstm.weight_hh_l0 f4 [512, 128]
0	0xbe861152	-0.2618509
1	0x3efdf58c	0.496014
2	0x3e780595	0.2422088
3	0x3e101e5d	0.14074083
4	0x3e60e793	0.21963339
5	0x3e0d4f69	0.13799824
6	0xbc97db31	-0.018537136
7	0xbcb9d6ff	-0.022685526
8	0xbf0f3435	-0.55939037
9	0xbe069a9d	-0.13144918
10	0x3cbb895a	0.022892643
11	0x3ca81784	0.020519026
12	0x3e65cb82	0.22440913
13	0xbdbab123	-0.091158174
14	0xbd13bee8	-0.036070734
15	0xbe9fbaaa	-0.311971
16	0xbe800909	-0.25006893
17	0x3c47e225	0.012199913
18	0xbed2b4ec	-0.41153657
19	0xbdb56837	-0.08857768
20	0x3e31a0b8	0.17346466
21	0x3d1cc32e	0.038272075
22	0x3dfded24	0.123987466
23	0xbdcad0c9	-0.09903104
24	0x3e3738eb	0.17892806
25	0x3ce5f142	0.028069142
26	0x3d558ded	0.052137304
27	0x3e259ef9	0.16173925
28	0xbddaf504	-0.10691264
29	0xbf0127de	-0.5045146
30	0x3d7f6559	0.062352512
31	0x3d3ce12e	0.046113186
32	0xbd79345f	-0.06084096
33	0x3debcfc9	0.11514241
34	0xbe3f4fc3	-0.1868277
35	0xbcd981ee	-0.026551213
36	0xbc2e474c	-0.010637116
37	0xbe2a43b8	-0.16627395
38	0xbe95a3d3	-0.2922655
39	0xbe3b77b6	-0.18307385
40	0xbd695553	-0.056966137
41	0xbe7dfc37	-0.24803244
42	0x3d96e200	0.07367325
43	0x3ca0f04e	0.019645836
44	0x3e60dfef	0.21960424
45	0xbe82b3bd	-0.25527754
46	0x3e0817e8	0.1329037
47	0xbe430905	-0.1904641
48	0xbe0e8d07	-0.13920985
49	0xbe1bec56	-0.15226874
50	0xbda887a7	-0.08228999
51	0xbf0c9677	-0.5491709
52	0xbe05caa4	-0.13065583
53	0xbce842d5	-0.02835218
54	0xbdfbbf63	-0.122923635
55	0xbe2d4c28	-0.16923583
56	0x3e03ceb6	0.12871823
57	0x3e2017e8	0.1563412
58	0x3e316d51	0.17326857
59	0xbe813177	-0.2523305
60	0xbe0a535c	-0.13508362
61	0x3eab98ba	0.3351496
62	0x3ec76021	0.38940528
63	0xbea6e093	-0.32593212
64	0xbe08b4ed	-0.13350268
65	0xbe3c1825	-0.18368585
66	0xbdf18489	-0.11792857
67	0x3ee62d27	0.44956324
68	0xbe6fd9da	-0.23422948
69	0xbdb6cc61	-0.08925701
70	0x3da2f2a7	0.079564385
71	0xbd81f706	-0.06345944
72	0xbdf7a472	-0.12091912
73	0x3e88aeb2	0.26695782
74	0xbea96228	-0.330827
75	0xbe99e775	-0.300594
76	0xbcc65995	-0.024212638
77	0x3d0850f3	0.033280324
78	0xbdb4495d	-0.088030554
79	0x3e451ab2	0.19248465
80	0x3e802e3d	0.25035277
81	0xbeaaffdb	-0.33398327
82	0xba127401	-0.0005586744
83	0xbddf9b8b	-0.10918339
84	0x3d67904d	0.0565341
85	0xbe85063c	-0.2598132
86	0x3ea22225	0.31666675
87	0xbd728157	-0.05920538
88	0x3e715f14	0.23571426
89	0x3cf80dbd	0.030279988
90	0x3d81d66f	0.06339728
91	0x3ebac1b8	0.3647592
92	0xbb459ecb	-0.0030154462
93	0xbc855bfc	-0.016279213
94	0x3e6916a3	0.22762541
95	0xbe3bae57	-0.18328224
96	0xbcc7c983	-0.02438808
97	0x3cd62622	0.02614123
98	0x3df9d300	0.12198448
99	0xbe5187a9	-0.20461906
100	0x3cb4e368	0.022081092
101	0xbda33835	-0.07969705
102	0x3d6964e9	0.056981
103	0x3e1d23cd	0.15345688
104	0xbde968da	-0.11396952
105	0x3e87231e	0.2639398
106	0x3e38641d	0.1800694
107	0x3dab445b	0.08362647
108	0x3e1d7fe8	0.15380824
109	0x3e49a1e8	0.19690669
110	0x3eb7d18d	0.35902062
111	0xbdbe602d	-0.09295688
112	0x3e54d23e	0.20783326
113	0x3d883990	0.06651604
114	0x3dbd1057	0.09231632
115	0x3d57365e	0.052542083
116	0xbdb59f46	-0.088682696
117	0x3caa21eb	0.020768126
118	0xbecc842b	-0.39944586
119	0x3e5ef175	0.21771796
120	0xbd972867	-0.07380753
121	0xbe6919dd	-0.22763772
122	0xbe21e2c9	-0.15809168
123	0xbe11cf1a	-0.14239159
124	0x3e7357f5	0.23764022
125	0xbeb85357	-0.36001083
126	0x3caa18cc	0.020763777
127	0x3d183577	0.037160363
128	0xbbb6d31b	-0.005579365
129	0x3d1c97f7	0.038230862
130	0xbdfee453	-0.12445893
131	0x3dfd1cf5	0.12359039
132	0xbdc551d6	-0.096347496
133	0x3dcf9870	0.10136497
134	0xbe80a8e4	-0.25128853
135	0x3e1178f7	0.142063
136	0x3e6aeda0	0.22942209
137	0xbea8631f	-0.32888123
138	0x3dbe5d71	0.09295166
139	0xbea6b2b2	-0.3255821
140	0x3c498193	0.012298959
141	0xbe0a61e5	-0.13513906
142	0xbe19ac6f	-0.15007184
143	0x3c3fd8b3	0.01170938
144	0xbe0f5d3f	-0.14000414
145	0xbd8fa79c	-0.07014391
146	0x3e4e5016	0.20147738
147	0xbe04a962	-0.1295524
148	0x3e9ad394	0.30239546
149	0x3e4571ef	0.19281743
150	0xbd5b0af0	-0.053477228
151	0xbe303998	-0.1720947
152	0xbea2d230	-0.31800985
153	0x3d9f990f	0.077928655
154	0x3e5a59f7	0.21323381
155	0xbe2c29d9	-0.16812839
156	0x3ecb9711	0.39763692
157	0x3dfbe28f	0.12299072
158	0xbd650cfe	-0.055920593
159	0x3e00a5ca	0.12563244
160	0xbdb0d5bc	-0.086345166
161	0x3e0eb1b9	0.13934983
162	0x3dd8cfaf	0.105864875
163	0xbee1fd95	-0.4413878
164	0xbeb68f0b	-0.35656008
165	0xbc88c6f8	-0.016696438
166	0x3e82844c	0.2549156
167	0x3e7e77ee	0.24850437
168	0x3e2601d4	0.16211635
169	0x3de3227f	0.11090564
170	0xbe87b8fd	-0.26508322
171	0x3e458eed	0.19292803
172	0x3d09b3e3	0.03361882
173	0xbe611fcf	-0.2198479
174	0x3e736c34	0.23771745
175	0xbdb42d5b	-0.08797713
176	0x3d2e9578	0.042623013
177	0xbe96a0f4	-0.29419672
178	0x3e861010	0.2618413
179	0x3d9236d0	0.07139361
180	0xbec7b072	-0.39001805
181	0x3e0854fd	0.1331367
182	0xbe933bd5	-0.28756586
183	0x3e85ff1e	0.261712
184	0xbdfa6d04	-0.12227824
185	0xbe71ad42	-0.23601249
186	0xbc8336d0	-0.016017348
187	0x3ef03afe	0.46920007
188	0x3e7954b7	0.24348722
189	0xbe4f7385	-0.20258911
190	0xbe5ec98f	-0.21756576
191	0x3dbe0e67	0.09280091
192	0x3e06a218	0.13147771
193	0x3e291756	0.16512808
194	0x3d12f144	0.03587462
195	0x3e8664e9	0.26248863
196	0xbde59e14	-0.11211792
197	0xbe66dbc4	-0.22544771
198	0x3ec4e4e2	0.38455874
199	0x39e5f65b	0.00043861833
200	0xbe71d5c5	-0.23616703
201	0xbe219144	-0.1577807
202	0x3e1498e7	0.14511453
203	0xbdd43acf	-0.10362779
204	0xbdce8d63	-0.10085561
205	0x3d96200e	0.07330333
206	0x3e21a51d	0.15785642
207	0xbd0d2d80	-0.03446722
208	0x3e420785	0.18948181
209	0x3e9a98c3	0.30194673
210	0xbed1ff56	-0.41015118
211	0xbd10b7aa	-0.035331406
212	0x3d9c8eec	0.07644448
213	0x3eb7ac55	0.35873666
214	0xbecbec53	-0.3982874
215	0xbe91afc6	-0.28454417
216	0x3bbf0ac2	0.00583014
217	0x3e9efa63	0.31050405
218	0xbd646a89	-0.055765662
219	0x3ecdcddb	0.40196118
220	0x3d243fc5	0.040099878
221	0xbdb00a50	-0.08595717
222	0xbe8d2dcf	-0.27574012
223	0x3e49805c	0.19677871
224	0xbe9103a7	-0.283231
225	0xbe24d47a	-0.16096678
226	0xbe04a7c9	-0.1295463
227	0x3f246f72	0.6423255
228	0xbe5ee715	-0.21767838
229	0xbea48328	-0.32131314
230	0xbeceef27	-0.40416834
231	0x3de30ad3	0.11086049
232	0xbca21e12	-0.01978973
233	0x3cdbf73d	0.02685129
234	0x3e23b3c7	0.15986548
235	0xbdb8b1bd	-0.09018276
236	0x3d475a68	0.048670202
237	0x3e3c02f7	0.18360506
238	0x3c9511f5	0.01819704
239	0xbd606928	-0.054787785
240	0xbcdb73f0	-0.026788682
241	0xbe1161f9	-0.1419753
242	0x3d4cfd45	0.050046224
243	0xbd54dcd9	-0.05196843
244	0xbe922a2f	-0.2854781
245	0xbdb46400	-0.08808136
246	0xbc9efe7c	-0.019408457
247	0xbe0ea849	-0.13931383
248	0x3d0143b7	0.03155872
249	0xbc9cf9aa	-0.019162018
250	0x3b925713	0.0044659465
251	0x3dc244fb	0.09485813
252	0xbe235c59	-0.15953197
253	0x3eb4be73	0.3530155
254	0xbe4fc036	-0.20288166
255	0xbe509574	-0.20369512

lstm.bias_ih_l0 f4 [512]
0	0x3e215919	0.15756644
1	0xbe04b429	-0.1295935
2	0xbc3c7111	-0.0115015665
3	0x3e11d4f1	0.14241387
4	0xbcde2cfc	-0.02712106
5	0x3e1a81f2	0.15088633
6	0xbd9e4079	-0.07727141
7	0xb80b9b62	-3.3284894e-05
8	0xbd248640	-0.040167093
9	0x3dc6cf10	0.09707463
10	0xbdd1c66b	-0.10242923
11	0x3b813af2	0.0039437944
12	0xbee751bc	-0.45179546
13	0x3c8dc533	0.017305946
14	0x3dbca4a6	0.09211092
15	0xbe25d489	-0.16194357
16	0xbe2bfdce	-0.16796038
17	0xbe278387	-0.16358767
18	0xbd28c987	-0.041207816
19	0xbe02bd06	-0.12767419
20	0xbe74cac3	-0.23905472
21	0xbb93d69d	-0.004511668
22	0x3e15054c	0.14552802
23	0x3e36e8e2	0.17862275
24	0x3d0f509e	0.034988992
25	0x3dee2379	0.116278596
26	0xbd143604	-0.036184326
27	0xbdaeaa28	-0.085285485
28	0xbe0add9a	-0.13561097
29	0xbe9f9fa8	-0.31176496
30	0x3e9e57d8	0.30926394
31	0x3d197697	0.03746661
32	0xbbab812c	-0.0052339043
33	0xbe2b0c8c	-0.16704005
34	0x3ce44139	0.027863132
35	0xbe26b5d9	-0.16280307
36	0x3da80bae	0.08205353
37	0x3e1653de	0.1468043
38	0x3c9eeb7e	0.0193994
39	0x3e53f2d2	0.20698097
40	0xbdf280b4	-0.118409544
41	0xbd958cb0	-0.07302225
42	0x3e92c672	0.28667027
43	0x3dd8dade	0.105886206
44	0xbda912cd	-0.08255539
45	0x3d535fa6	0.05160489
46	0xbda02c6b	-0.07820972
47	0x3df21cc4	0.11821893
48	0x3d9618ef	0.073289745
49	0x3dc23238	0.09482235
50	0xbd4113b1	-0.04713792
51	0xbe3843d6	-0.17994627
52	0x3e25c079	0.16186704
53	0xbc7c9142	-0.015415492
54	0xbe026372	-0.12733248
55	0x3ea74739	0.32671526
56	0xbdee9693	-0.116498135
57	0x3eada88a	0.33917648
58	0x3d958b7a	0.07301994
59	0x3dde0aca	0.108419016
60	0x3e0effe1	0.13964798
61	0x3e1c0b28	0.15238631
62	0x3b9d93c3	0.0048088743
63	0x3d7354eb	0.059407156
64	0xbe2ee7f0	-0.17080665
65	0x3da935b8	0.08262199
66	0x3e5d844a	0.21632496
67	0xbb936845	-0.004498514
68	0xbc46dbc5	-0.012137358
69	0xbd6dbcd3	-0.058041405
70	0xbe5777d2	-0.21041802
71	0x3e1d273b	0.15346996
72	0x3c2e50a8	0.010639347
73	0xbd97c9e5	-0.07411555
74	0xbdbc27f1	-0.09187306
75	0xbd4c0003	-0.0498047
76	0xbda9f6ec	-0.0829905
77	0x3cf0e0b2	0.029404018
78	0x3da995a8	0.08280498
79	0x3dcf3a66	0.101185605
80	0x3dc5e88c	0.096634954
81	0xbc4868a0	-0.012231976
82	0x3e822e99	0.25426176
83	0xbdecb33f	-0.11557626
84	0x3e6d09a3	0.23148207
85	0x3e61867c	0.22023958
86	0xbe120caf	-0.14262651
87	0xbe56a744	-0.20962244
88	0x3d81a732	0.06330718
89	0xbdf119a4	-0.11772469
90	0xbd0c5d76	-0.03426882
91	0xbd6fdd45	-0.05856063
92	0x3e14dd6f	0.14537595
93	0xbd9ecfaf	-0.07754456
94	0x3e692ffc	0.22772211
95	0x3d035170	0.032060087
96	0x3e0e5656	0.13900122
97	0x3e48a3c2	0.19593719
98	0x3ec02e2d	0.3753523
99	0x3e9658df	0.29364678
100	0x3d6b5a82	0.05745936
101	0xbcb8e4a7	-0.022569967
102	0xbc9a7602	-0.018855099
103	0xbe49ad7a	-0.19695082
104	0xbe48294a	-0.19547
105	0x3cd08e1d	0.02545839
106	0x3d91b0d8	0.071138084
107	0xbbb34f71	-0.0054721166
108	0xbe6d334e	-0.23164102
109	0x3ceb5afe	0.028729912
110	0x3d3c7a6e	0.046015196
111	0x3d462229	0.04837242
112	0xbe1336b4	-0.14376336
113	0x3e0d5ee5	0.1380573
114	0x3b05e21a	0.0020428956
115	0x3e98c7ef	0.29840037
116	0xbc690bd9	-0.014224016
117	0x3dcb0f38	0.09915012
118	0xbe5e14ea	-0.21687666
119	0x3d1ae701	0.03781796
120	0x3e1813ef	0.14851354
121	0x3c87c658	0.01657407
122	0xbcf38f16	-0.029731315
123	0x3d8d7e51	0.069088586
124	0x3e4856ee	0.19564411
125	0xbd99c0f5	-0.07507507
126	0x3e1248dc	0.14285606
127	0xbe273887	-0.16330157
128	0x3ca54591	0.020174773
129	0x3e828bb6	0.25497216
130	0xbccb28d6	-0.024799746
131	0x3e187d3b	0.14891522
132	0xbd8b4fba	-0.06802316
133	0x3ea8f929	0.33002594
134	0x3d72821c	0.059206113
135	0xbe005a0e	-0.12534353
136	0xbc1523d2	-0.0091027785
137	0x3d9b6af7	0.07588761
138	0xbdd0066f	-0.10157477
139	0x3e0be9b5	0.13663371
140	0xbb5fbc85	-0.0034139466
141	0x3bf19a42	0.0073731253
142	0x3ddc4856	0.107559845
143	0x3e176ea2	0.14788297
144	0x3e8e2b57	0.2776744
145	0x3d8c4032	0.06848182
146	0x3d7da4ed	0.061924864
147	0x3c6e5fa4	0.01454917
148	0x3e1b9d79	0.1519679
149	0xbd77941e	-0.06044399
150	0xbda7efa4	-0.08200005
151	0x3e35732a	0.17719713
152	0xbe593963	-0.21213298
153	0xbc0c9b84	-0.008582
154	0xbc163dd0	-0.009170011
155	0x3d2b98ce	0.041893773
156	0x3e23f01a	0.1600956
157	0x3ea42b39	0.32064226
158	0x3db63c05	0.088981666
159	0x3cd23d92	0.025664125
160	0xbdf55105	-0.11978344
161	0xbdfd94bd	-0.12381885
162	0x3c7b2e76	0.015330901
163	0x3ed14c9f	0.4087877
164	0x3ec58dba	0.3858469
165	0xbef0bf47	-0.47020933
166	0xbd9ec75a	-0.07752867
167	0x3dd1a2a1	0.10236097
168	0x3d386ecd	0.045027543
169	0xbd68075e	-0.05664765
170	0x3e3adfa7	0.18249379
171	0x3e4c94f9	0.19978704
172	0x3dab6685	0.083691634
173	0xbdf8a071	-0.12139977
174	0x3e59834d	0.21241494
175	0x3de5de1a	0.11224003
176	0x3d0d78a2	0.034538873
177	0xbd72d62e	-0.05928629
178	0xbe3f9019	-0.18707313
179	0x3e7c662d	0.24648352
180	0x3ed9748b	0.42471728
181	0x3dce9d0b	0.10088547
182	0x3e1afdc8	0.15135872
183	0x3e9b1228	0.3028729
184	0xbe861216	-0.26185673
185	0x3da44035	0.08020059
186	0x3e7d299b	0.24722902
187	0xbe08e7d1	-0.13369681
188	0x3c832897	0.016010566
189	0x3eaf4c91	0.34238103
190	0xbd8c2877	-0.068436556
191	0x3e3f9973	0.1871088
192	0xbd4f1b84	-0.05056335
193	0xbb850a0a	-0.0040600346
194	0x3da6c081	0.08142186
195	0xbc82b949	-0.015957491
196	0x3e10b6e4	0.14132267
197	0x3eff3294	0.49843276
198	0x3d4b5c7f	0.049648758
199	0x3ce39ad1	0.027783783
200	0xbda1717f	-0.07882976
201	0x3e5aeb2e	0.21378776
202	0xbd3b1daf	-0.045682605
203	0x3e7ef7b7	0.24899183
204	0x3e2b3f49	0.1672336
205	0xbe279d7d	-0.16368671
206	0xbdb14880	-0.086564064
207	0x3e4db088	0.20086873
208	0xbe055f3e	-0.13024613
209	0x3d9140b8	0.07092422
210	0xbd83733f	-0.06418466
211	0x3e63461a	0.2219471
212	0x3d7a6a43	0.061136495
213	0x3e3eafac	0.18621701
214	0x3ea49db5	0.3215157
215	0x3d8b0b97	0.0678932
216	0x3ea1d31f	0.31606385
217	0x3e79c771	0.24392487
218	0x3cd263b8	0.025682315
219	0x3dcd362c	0.10020098
220	0x3e5c6364	0.2152229
221	0x3d576d78	0.052594632
222	0x3af85a6b	0.0018947845
223	0x3d9b4391	0.07581247
224	0x3dde5cfd	0.1085758
225	0x3dc0dd8c	0.09417257
226	0x3e2e810a	0.17041412
227	0x3a161194	0.0005724665
228	0x3e3ba46a	0.18324438
229	0x3da88ef1	0.08230389
230	0xbe47a4cf	-0.19496463
231	0x3e6f58a7	0.23373662
232	0x3d06494e	0.032784753
233	0x3e160056	0.14648566
234	0x3e6c966c	0.23104256
235	0xbce86882	-0.028370146
236	0x3ee4c140	0.44678688
237	0x3d80ceff	0.06289481
238	0xbe2ab676	-0.16671166
239	0x3e512dc4	0.20427614
240	0x3e7bb227	0.24579678
241	0x3df0ea68	0.117634594
242	0x3db24793	0.08705058
243	0x3cefa176	0.029251795
244	0x3d529265	0.051409144
245	0x3e8b5c6a	0.27218944
246	0x3ebcdcc3	0.36887178
247	0x3c2fe076	0.010734668
248	0x3d1bade8	0.038007647
249	0xbddb5bb0	-0.107108474
250	0x3e68d451	0.22737242
251	0xbe2c8973	-0.16849308
252	0x3dbb382e	0.09141575
253	0x3d53d30c	0.05171494
254	0xbe19eb8d	-0.15031262
255	0xbd617521	-0.055043343

lstm.bias_hh_l0 f4 [512]
0	0x3e09bc12	0.1345065
1	0xbe233d5c	-0.15941375
2	0xbd49f4b7	-0.049305644
3	0x3e261208	0.16217816
4	0x3c2d92d6	0.01059409
5	0x3e63de59	0.22252788
6	0xbd16fb52	-0.03686077
7	0xbd5fae7a	-0.054609753
8	0x3d1e8782	0.03870345
9	0x3e2b0466	0.16700897
10	0xbe37a1f1	-0.1793287
11	0x3d138038	0.03601095
12	0xbedb45b7	-0.42826626
13	0x3c6bfe04	0.014403824
14	0x3e20278b	0.15640084
15	0xbe306a48	-0.17228043
16	0xbe0601da	-0.13086644
17	0xbe0a86d0	-0.1352799
18	0xbcc96b33	-0.02458725
19	0xbe06b297	-0.13154064
20	0xbe3968bf	-0.18106364
21	0x3d3bff7f	0.045897957
22	0x3df4ff40	0.119627476
23	0x3e180fd6	0.14849791
24	0xbd9722de	-0.07379697
25	0x3d4ae0cf	0.0495308
26	0xbdc2f07a	-0.095185235
27	0xbc742dba	-0.01490348
28	0xbe1cc475	-0.15309317
29	0xbeac5e82	-0.33665854
30	0x3eb0e846	0.3455221
31	0xbdb34e91	-0.0875522
32	0xbdfcdc0b	-0.12346657
33	0xbded8338	-0.115972936
34	0xbdcde32e	-0.10053097
35	0xbe2ec621	-0.17067768
36	0x3d985d82	0.0743971
37	0x3e1b69cc	0.15177077
38	0xbc201251	-0.009769992
39	0x3e8268f7	0.25470707
40	0xbe63c2f6	-0.2224234
41	0xbdf6f06f	-0.12057578
42	0x3e229850	0.15878415
43	0x3dd99e0f	0.106258504
44	0xbd5482a6	-0.05188241
45	0x3dd14174	0.10217562
46	0xbdede540	-0.116159916
47	0x3cf7b9ac	0.030239902
48	0xbd493ac9	-0.049128328
49	0x3cb3eea1	0.021964373
50	0xbbe7d028	-0.0070743747
51	0xbdfe0380	-0.12403011
52	0x3e8a7cc5	0.27048317
53	0xbd9b5e8b	-0.07586392
54	0xbe06b6ea	-0.13155714
55	0x3e975678	0.29558158
56	0x3c52acc2	0.0128585715
57	0x3ea1d959	0.31611136
58	0x3cbe3512	0.023218665
59	0x3b6b0d4a	0.0035866075
60	0x3e327195	0.1742614
61	0x3db2bf94	0.08727947
62	0xbd468c85	-0.048473854
63	0x3b280209	0.0025635979
64	0xbe37dee5	-0.17956121
65	0x3d213d12	0.03936488
66	0x3e97d400	0.2965393
67	0xbd49b38c	-0.049243495
68	0x3c460d42	0.012088122
69	0x3bd41f4b	0.006473457
70	0xbe9a11a3	-0.3009158
71	0x3d02e6ba	0.03195832
72	0x3d38c396	0.0451084
73	0xbda106ae	-0.07862602
74	0xbda1ccce	-0.079003915
75	0xbd0472fd	-0.032336224
76	0xbc95447e	-0.018221136
77	0xbcf08bff	-0.02936363
78	0x3dde6482	0.10859014
79	0x3e67cd5e	0.22636935
80	0x3e2a95f0	0.16658759
81	0xbc913376	-0.017724734
82	0x3e7f1adb	0.24912588
83	0xbe322408	-0.17396557
84	0x3ddffce3	0.10936906
85	0x3e40b502	0.18819049
86	0xbdecf609	-0.11570365
87	0xbda2b501	-0.0794468
88	0x3bd4eaad	0.006497702
89	0xbe4a1e5f	-0.19738148
90	0x3d041f65	0.032256503
91	0x3c767f35	0.015044977
92	0x3dc3a007	0.09552007
93	0xbe0178ad	-0.1264369
94	0x3e406c70	0.18791366
95	0x3e23ce9c	0.15996784
96	0x3e7ae1d0	0.24500203
97	0x3e3a919c	0.18219608
98	0x3eb034ce	0.34415287
99	0x3e485365	0.19563062
100	0x3d638135	0.055543143
101	0x3d87ee0d	0.066372015
102	0xbcda40c7	-0.026642216
103	0xbe8de908	-0.2771685
104	0xbe40953e	-0.18806931
105	0x3c8cc59e	0.017184075
106	0x3dbe7fb3	0.093017004
107	0xbd792a35	-0.060831267
108	0xbe46bb79	-0.19407453
109	0x3ca82d03	0.020529276
110	0x3d89158d	0.066935636
111	0xbd3dc9f1	-0.046335164
112	0xbe07a9a2	-0.13248304
113	0x3e31fea1	0.1738229
114	0x3d4dcd2d	0.0502445
115	0x3e921d32	0.285379
116	0x3c77beb2	0.015121149
117	0x3e09b84c	0.1344921
118	0xbe8d0f55	-0.2755076
119	0xbbb6d4d7	-0.0055795717
120	0x3e3dffd4	0.18554622
121	0x3c9df5fc	0.019282334
122	0x3d71ce1c	0.05903445
123	0x3d0e28e3	0.03470696
124	0x3e8a4931	0.27008966
125	0xbe2dcf40	-0.16973591
126	0x3e8f98f5	0.28046384
127	0xbe56a023	-0.20959525
128	0x3b7eabfe	0.003885984
129	0x3e4e15fe	0.20125577
130	0xbd48c42a	-0.0490152
131	0x3e69f34b	0.22846715
132	0xbd601f57	-0.054717388
133	0x3ee968f2	0.4558788
134	0xbd33d15a	-0.043900825
135	0x3c0fabcd	0.008768988
136	0xbd5edb3f	-0.054408308
137	0x3cdc8aed	0.026921714
138	0xbdde930b	-0.1086789
139	0x3e06deaa	0.13170877
140	0x3ddfcf8d	0.10928259
141	0xbd8d3183	-0.06894209
142	0x3d74436c	0.05963461
143	0x3e166c9e	0.14689872
144	0x3e6aecd6	0.22941908
145	0x3d9360f7	0.07196229
146	0x3cd6db46	0.026227605
147	0xbcaf1d05	-0.021376142
148	0x3e401375	0.18757422
149	0xbd7b9d84	-0.061429515
150	0xbd3af9dc	-0.04564844
151	0x3e16a57d	0.14711566
152	0xbe651046	-0.22369489
153	0x3cf867f5	0.030323008
154	0x3d0c07f7	0.034187283
155	0x3de07965	0.10960654
156	0x3dd3a6b5	0.10334531
157	0x3e520a9a	0.20511857
158	0x3e20dd76	0.1570948
159	0xbdd814ba	-0.10550828
160	0xbd455585	-0.04817726
161	0xbd8faec7	-0.07015758
162	0xbd8b0ea8	-0.06789905
163	0x3f000e41	0.5002175
164	0x3ebff81f	0.3749399
165	0xbeb797a1	-0.3585787
166	0x3d154ee5	0.036452193
167	0x3da8f064	0.08248976
168	0x3d2abcac	0.041683838
169	0xbccc014e	-0.024902966
170	0x3d906a90	0.07051575
171	0x3e38dc96	0.18052897
172	0x3e0c8f11	0.1372645
173	0xbe03ae48	-0.12859452
174	0x3e2b3979	0.16721143
175	0x3dd4fb16	0.10399453
176	0x3d2e67ee	0.042579584
177	0xbc9774ba	-0.018488277
178	0xbe8fbf15	-0.28075472
179	0x3e12edc0	0.14348507
180	0x3eb8e59f	0.36112687
181	0x3e7e7fd9	0.24853458
182	0x3dc737e1	0.09727455
183	0x3e386fa8	0.18011343
184	0xbe7ae3d0	-0.24500966
185	0x3e6833c7	0.22676001
186	0x3e2bc996	0.16776118
187	0xbcb0d4da	-0.02158587
188	0x3d5d88da	0.05408559
189	0x3e9f94d3	0.3116823
190	0x3cbd19e0	0.023083627
191	0x3e7e95f1	0.24861886
192	0xbc0246ff	-0.007951497
193	0xbdc33c7a	-0.09533019
194	0x3e3e0d3c	0.18559736
195	0xbadbfc93	-0.0016783647
196	0x3deec172	0.116579905
197	0x3efb06fd	0.4902877
198	0x3d32ce90	0.043654025
199	0x3d16bd29	0.03680149
200	0xbe177593	-0.14790945
201	0x3e0830eb	0.1329991
202	0xbc092657	-0.008370957
203	0x3e7c6ebe	0.2465162
204	0x3e690979	0.2275752
205	0xbe389827	-0.18026792
206	0x3d5581d4	0.052125767
207	0x3e644591	0.22292162
208	0xbe579ca7	-0.21055852
209	0x3e202a9e	0.15641257
210	0xbdd04d5a	-0.10171004
211	0x3e2e3a62	0.17014459
212	0x3d871c41	0.06597186
213	0x3e4337c6	0.19064245
214	0x3e992d13	0.299172
215	0x3ddf0a41	0.10890628
216	0x3e5afa20	0.21384478
217	0x3eae09c2	0.3399182
218	0xbc6c5e86	-0.014426833
219	0x3e3c14ee	0.18367359
220	0x3dd0121a	0.101597026
221	0x3d87c285	0.066288985
222	0xbcd23c4b	-0.025663516
223	0x3e073d71	0.13207032
224	0xbc79e6d3	-0.015252787
225	0xbb31485d	-0.0027051189
226	0x3e336288	0.17518055
227	0xbc063d1e	-0.008193282
228	0x3ea3a05b	0.3195828
229	0x3da10fbb	0.078643285
230	0xbe93b3a6	-0.28847998
231	0x3e7f8712	0.24953869
232	0x3dcfb3e9	0.10141737
233	0x3d8e71de	0.06955312
234	0x3dd96906	0.10615735
235	0x3cceee5e	0.025260147
236	0x3ee5ba1d	0.44868556
237	0xb8ca7bfe	-9.655206e-05
238	0xbe0f5880	-0.13998604
239	0x3ea884a7	0.32913706
240	0x3e8d3ea3	0.2758685
241	0x3e315792	0.17318562
242	0xbd396732	-0.04526443
243	0x3e4023c1	0.18763639
244	0x3e196476	0.14979729
245	0x3e04c066	0.12964019
246	0x3ea0fcdf	0.31442925
247	0x3c962c3b	0.018331638
248	0x3d834d4c	0.064112276
249	0xbd32c235	-0.04364224
250	0x3e9cd827	0.3063366
251	0xbe6662da	-0.22498646
252	0x3db837ce	0.08995019
253	0x3d0dffa6	0.034667633
254	0xbe461737	-0.19344793
255	0xbe019078	-0.12652767

lstm.weight_ih_l1 f4 [512, 128]
0	0x3c3c8460	0.01150617
1	0x3e8a67ee	0.27032417
2	0x3e08982e	0.13339302
3	0x3dc18d1b	0.09450742
4	0x3e4145b3	0.18874244
5	0x3ddef062	0.10885693
6	0xbe2aaa74	-0.16666585
7	0xbe2c508e	-0.16827604
8	0xbe1e82a3	-0.15479521
9	0xbe1f5ad2	-0.15561989
10	0x3e411f9a	0.18859711
11	0xbd869665	-0.06571654
12	0x3cc0b024	0.02352149
13	0xbe2522cd	-0.16126557
14	0xbe0173a9	-0.12641777
15	0x3e78b0a7	0.24286138
16	0x3daa4ea5	0.083157815
17	0xbeacf899	-0.33783415
18	0xbe0510a0	-0.12994623
19	0x3e2f4a0f	0.17118095
20	0xbe271e92	-0.16320255
21	0x3c2e5348	0.010639973
22	0xbe2f1733	-0.17098694
23	0x3d1bd06c	0.038040563
24	0xbc91db0f	-0.01780465
25	0xbe0fbd25	-0.14036997
26	0xbe599d8d	-0.21251507
27	0xbcc5fa87	-0.024167312
28	0x3e765ccd	0.24058838
29	0xbd96a094	-0.073548466
30	0xbd828085	-0.063721694
31	0xbe8023aa	-0.2502721
32	0x3e2e63b5	0.17030223
33	0x3ed14766	0.40874785
34	0x3e1e69bb	0.1547002
35	0xbebbb6b1	-0.3666282
36	0x3dd154ef	0.10221278
37	0xbdc3f1d0	-0.095676064
38	0x3d52a24c	0.05142431
39	0xbdeb9b66	-0.11504249
40	0xbea058f4	-0.31317866
41	0x3d241c61	0.040066127
42	0x3e97ea70	0.2967105
43	0xbe8d157b	-0.2755545
44	0x3e645caf	0.22300981
45	0x3c822237	0.015885456
46	0x3e1cca91	0.15311648
47	0xbe1cdb14	-0.15317947
48	0x3e957e46	0.291979
49	0xbe28b7fb	-0.16476433
50	0xbd7d8d67	-0.06190243
51	0x3ebf94c8	0.374182
52	0x3e22bbc8	0.15891945
53	0xbea1590a	-0.31513244
54	0xbe564258	-0.20923746
55	0xbeb13063	-0.3460723
56	0xbbd0c8b4	-0.006371582
57	0x3e71c3fe	0.23609921
58	0x3ec358a6	0.3815357
59	0x3d96d82e	0.07365452
60	0xbea89f2e	-0.32933944
61	0x3e8f5f79	0.28002527
62	0x3ce9925f	0.028512178
63	0x3d557250	0.05211097
64	0x3da4a7c9	0.08039815
65	0x3d9d027d	0.0766649
66	0x3e3784c8	0.17921746
67	0x3e50ae65	0.20379026
68	0xbe8fa446	-0.28055018
69	0x3daa0c86	0.0830317
70	0xbe207342	-0.15668967
71	0x3d2076ac	0.039175674
72	0xbdf92704	-0.12165645
73	0xbe7c487a	-0.24637023
74	0x3e127916	0.14304003
75	0xbec4d285	-0.38441864
76	0xbe8d87d7	-0.276427
77	0xbe4ee456	-0.20204291
78	0xbe4e6565	-0.20155866
79	0xbe1b5905	-0.15170677
80	0x3e568390	0.20948625
81	0x3e5ad93a	0.21371928
82	0x3d9a1f4b	0.075255
83	0x3c6741b6	0.014114788
84	0x3e1b9de5	0.1519695
85	0xbe8b2ed9	-0.2718418
86	0x3e5897a9	0.21151604
87	0xbe2b1b34	-0.16709596
88	0x3e806dad	0.25083676
89	0x3d54abe6	0.051921748
90	0x3ea838a7	0.32855722
91	0xbf102c2c	-0.563174
92	0x3e21097d	0.15726276
93	0xbe0779ad	-0.1323001
94	0xbd895e59	-0.067074485
95	0xbde8065e	-0.113293394
96	0xbe5775db	-0.21041052
97	0xbe47abbe	-0.19499108
98	0x3b2296a1	0.002480902
99	0xbd859968	-0.065234005
100	0x3f063b35	0.5243409
101	0x3e96081d	0.29303065
102	0x3e2a2d6b	0.16618888
103	0xbe5a37b9	-0.21310319
104	0x3d6d9cd5	0.058010895
105	0xbea1f251	-0.31630185
106	0xbe144dea	-0.14482847
107	0xbc226b6f	-0.0099133095
108	0x3eb8e332	0.36110836
109	0xbc84a915	-0.016193906
110	0xbf033594	-0.5125363
111	0x3c1ba241	0.009499134
112	0x3da9a5bb	0.08283564
113	0xbea1333b	-0.31484398
114	0x3e394b0c	0.18095034
115	0x3e2304be	0.15919778
116	0x3d965fee	0.07342516
117	0xbea8fca1	-0.3300524
118	0x3d10a497	0.035313215
119	0x3eedbde3	0.46433935
120	0xbd230929	-0.039803658
121	0x3e4d3d94	0.20043021
122	0x3e024844	0.1272288
123	0x3e1245de	0.14284465
124	0xbeab959b	-0.33512577
125	0x3cc90744	0.024539597
126	0x3e113681	0.14180948
127	0x3de6e28f	0.11273681
128	0x3eb34aa0	0.35017872
129	0xbdf40ca7	-0.11916476
130	0x3c4bdcac	0.012442749
131	0xbd199eb3	-0.037504863
132	0x3e6cee3d	0.23137756
133	0xbe0789ea	-0.13236204
134	0x3ea94b74	0.3306538
135	0xbd74a344	-0.059726015
136	0x3e14ca40	0.14530277
137	0x3e1cf0f8	0.15326297
138	0xbea42ba0	-0.32064533
139	0xbc4859ad	-0.012228412
140	0xbc085592	-0.008321183
141	0x3e148869	0.14505161
142	0xbe69ea74	-0.22843343
143	0xbe2c2339	-0.16810311
144	0xbdb93df8	-0.09045023
145	0x3d924d7c	0.07143685
146	0x3ec40df4	0.38291895
147	0x3ca14370	0.019685477
148	0xbdc78d6d	-0.09743772
149	0x3e038f6e	0.12847683
150	0x3e66776b	0.22506492
151	0x3e08cbf0	0.13359046
152	0x3ed4b27e	0.4154243
153	0xbe1dd441	-0.15413
154	0x3ed4dd4a	0.4157508
155	0x3e813b8a	0.25240737
156	0x3d6deedd	0.058089126
157	0x3de29d14	0.110651165
158	0xbe202c10	-0.15641809
159	0x3e83e7b0	0.257627
160	0x3e8e3fdd	0.277831
161	0xbeb8249b	-0.35965428
162	0xbe751ec3	-0.23937516
163	0x3e9134d6	0.28360623
164	0x3e24e85c	0.16104263
165	0xbe223319	-0.15839805
166	0x3e9ffaf2	0.31246144
167	0x3dafda5c	0.085865706
168	0x3e6284c7	0.22120963
169	0xbe903d83	-0.2817193
170	0xbe6198b7	-0.22030912
171	0x3dbeae9d	0.093106486
172	0x3c3261c7	0.01088757
173	0x3ea67473	0.3251072
174	0xbe735171	-0.23761536
175	0xbd325dce	-0.04354649
176	0xbe890d87	-0.26768133
177	0xbe462a05	-0.19351967
178	0x3c814053	0.015777742
179	0xbdacf464	-0.08445051
180	0x3e761bfc	0.24034113
181	0x3e93e27b	0.28883728
182	0x3d394be0	0.045238376
183	0xbee855c6	-0.4537794
184	0xbe17122b	-0.14753024
185	0x3a211e1a	0.0006146148
186	0xbefeaf31	-0.49743035
187	0xbddc6827	-0.10762053
188	0xbe801540	-0.25016212
189	0x3e3e0ac6	0.18558797
190	0xbe28eed1	-0.16497351
191	0xbe22c57a	-0.15895644
192	0x3dfb656b	0.12275203
193	0xbda714c4	-0.081582576
194	0xbda92f6c	-0.08260998
195	0xbeaf134a	-0.34194404
196	0x3d443962	0.047906287
197	0x3d7f42a7	0.062319424
198	0xbed976cc	-0.42473447
199	0xbe0ed833	-0.13949661
200	0x3e7ac555	0.24489339
201	0xbe876365	-0.2644302
202	0xbdd58a3e	-0.10426758
203	0x3e08613e	0.13318345
204	0xbebcb108	-0.36853814
205	0xbb11a536	-0.0022223718
206	0xbeaa6ee9	-0.33287743
207	0x3e089dbd	0.13341422
208	0x3e157998	0.14597166
209	0x3ebb31bf	0.3656139
210	0x3de11bc9	0.10991628
211	0xbf0005b1	-0.50008684
212	0xbe67aeb5	-0.22625239
213	0xbf291d9b	-0.660608
214	0x3f11e889	0.56995445
215	0x3eb23644	0.34807026
216	0xbccd3496	-0.025049489
217	0xbe4de04c	-0.20105094
218	0xbe28afbe	-0.1647329
219	0xbe6af2ab	-0.22944133
220	0xbeb3e779	-0.35137537
221	0x3e630a28	0.22171843
222	0x3decb362	0.11557652
223	0xbe75590c	-0.2395975
224	0xbe2a0d38	-0.16606605
225	0x3e1d4425	0.15358026
226	0x3ea343c2	0.31887633
227	0xbe48062e	-0.19533607
228	0xbb5320a3	-0.0032215498
229	0xbe15b1dc	-0.14618629
230	0xbdf0ca27	-0.117573075
231	0xbcff1672	-0.031138632
232	0xbc8b5d3c	-0.017012231
233	0x3e6ab557	0.22920738
234	0x3eb36548	0.3503821
235	0x3ea10d0f	0.31455275
236	0xbe174dca	-0.14775768
237	0xbdc6b5d3	-0.09702649
238	0xbf10dc55	-0.565862
239	0xbd81c6b8	-0.06336731
240	0xbeb3cd86	-0.3511774
241	0x3e836476	0.25662583
242	0xbe0075f5	-0.12544997
243	0xbf0b03bc	-0.54302573
244	0x3c0fd690	0.008779183
245	0xbd4a8846	-0.049446367
246	0x3e568b0d	0.20951481
247	0x3e442f8f	0.19158767
248	0x3df6be6d	0.120480396
249	0xbea9589a	-0.3307541
250	0x3e121d01	0.14268877
251	0xbe90754e	-0.28214496
252	0x3f118db9	0.56856877
253	0x3e587c7f	0.21141241
254	0xbc658bfe	-0.0140104275
255	0xbde46a40	-0.11153078

lstm.weight_hh_l1 f4 [512, 128]
0	0x3e413070	0.18866134
1	0x3d542278	0.051790684
2	0x3e9f6a21	0.31135657
3	0xbe570990	-0.20999742
4	0xbee040f5	-0.43799558
5	0xbe0b4ca3	-0.13603453
6	0x3dbeca77	0.09315961
7	0xbeb3fe6b	-0.35155043
8	0x3e490208	0.19629681
9	0x3e2ff69b	0.17183916
10	0x3d370c9c	0.04468976
11	0x3e36b36d	0.17841883
12	0xbda24705	-0.07923702
13	0xbdf89bf2	-0.12139119
14	0x3e8c92b5	0.2745568
15	0x3b324a74	0.0027205022
16	0xbe6a83c9	-0.22901835
17	0x3d732bcf	0.05936795
18	0xbd28d164	-0.041215315
19	0x3dde9898	0.10868949
20	0x3dfd1e19	0.12359256
21	0x3ddd3a74	0.10802165
22	0xbe264de4	-0.1624065
23	0xbee7fb04	-0.45308697
24	0xbd34ae57	-0.044111576
25	0xbc198e0d	-0.009372246
26	0x3dc2eaa8	0.095174134
27	0xbe405a32	-0.18784407
28	0xbd144d1a	-0.036206342
29	0xbd973a6e	-0.073841915
30	0x3ddd8ae6	0.108175084
31	0xbe23ff2a	-0.16015306
32	0x3cb84199	0.022492217
33	0xbe40e9ac	-0.18839139
34	0xbedfbc6b	-0.4369844
35	0xbe8fbc6b	-0.2807344
36	0x3dec3823	0.11534145
37	0xbea6ae7e	-0.32555002
38	0x3df8930a	0.121374205
39	0x3e0df35e	0.13862368
40	0xbcad6e6a	-0.021170814
41	0xbd1fe681	-0.039038185
42	0x3e78bc89	0.2429067
43	0x3e207240	0.15668583
44	0xbe368745	-0.17825039
45	0x3e883da3	0.26609525
46	0xbe9b5cdf	-0.30344293
47	0xbe1987b4	-0.14993173
48	0xbdef9a1e	-0.116993174
49	0x3e87eaee	0.26546425
50	0x3f00a3fe	0.5025023
51	0xbc3123ce	-0.010811759
52	0x3e05c01c	0.13061565
53	0x3e3b8f4a	0.18316379
54	0xbddbf6c6	-0.10740428
55	0xbd7d11b2	-0.061784454
56	0x3c3cdddf	0.011527508
57	0x3e74fa62	0.23923638
58	0x3f076811	0.5289317
59	0xbd3ff1a5	-0.04686131
60	0xbcf7353e	-0.030176755
61	0xbe61bf3d	-0.22045608
62	0xbe0decc7	-0.13859855
63	0xbe3fe735	-0.18740542
64	0xbe4e2dfc	-0.20134729
65	0xbe05fa65	-0.13083799
66	0x3e805a5e	0.25068945
67	0x3e67d526	0.22639903
68	0x3d383361	0.044970874
69	0x3ea48ee3	0.32140264
70	0x3d3001d4	0.042970493
71	0xbdabff2d	-0.0839828
72	0xbd6b26bf	-0.057409998
73	0xbe253cbd	-0.16136451
74	0xbe6c8ae9	-0.23099865
75	0x3d7c8777	0.061652627
76	0x3e24ab2e	0.16080925
77	0xbdff3254	-0.12460771
78	0xbec15a60	-0.37764263
79	0x3e0ae4fa	0.1356391
80	0x3d648cb3	0.055798244
81	0x3e12c1ef	0.14331792
82	0x3c89edcb	0.016837021
83	0x3e231ec1	0.159297
84	0xbd108df7	-0.03529164
85	0x3c77417a	0.015091294
86	0xbe06e31e	-0.13172576
87	0xbd9e9f49	-0.07745225
88	0x3eed319f	0.4632692
89	0xbc323876	-0.010877719
90	0xbe66f191	-0.22553088
91	0xbe6660aa	-0.22497812
92	0x3f15bc27	0.5849022
93	0x3ddc753a	0.10764547
94	0xbd5dac79	-0.05411956
95	0xbe7e176f	-0.24813627
96	0x3e64be03	0.22338109
97	0xbe2338a8	-0.15939581
98	0x3e65fb68	0.22459185
99	0x3da217cc	0.07914695
100	0x3da2a590	0.07941735
101	0x3e05e988	0.13077366
102	0x3f2c8fa8	0.674067
103	0xbe1dea97	-0.1542152
104	0xbf26b64b	-0.65121907
105	0xbd4f8762	-0.05066622
106	0xbd5ca7dd	-0.053871024
107	0x3ee25915	0.4420859
108	0x3df6a97f	0.120440476
109	0x3c97d33a	0.018533338
110	0xbeaf9981	-0.34296802
111	0x3dda8972	0.10670747
112	0x3e04c95b	0.12967436
113	0x3dafa949	0.085772105
114	0xbd840a8d	-0.06447325
115	0x3e9f1e27	0.31077692
116	0x3dec5390	0.11539376
117	0xbe22d162	-0.15900186
118	0xbd13627c	-0.035982594
119	0xbb53f7eb	-0.0032343816
120	0xbe08f815	-0.13375886
121	0xbd89851f	-0.06714844
122	0xbe2ac503	-0.16676717
123	0xbd2f6ac9	-0.042826448
124	0xbc6f6e1d	-0.014613655
125	0x3dd6a450	0.10480559
126	0xbe433487	-0.19063006
127	0x3e285891	0.16440035
128	0x3d099283	0.03358699
129	0xbe1bb870	-0.15207076
130	0xbd76eb69	-0.0602831
131	0x3dfbcd35	0.122949995
132	0x3c065dd3	0.00820108
133	0xbdc061ca	-0.09393652
134	0xbd212369	-0.03934041
135	0x3e2b2e3a	0.16716853
136	0x3ce3408a	0.027740736
137	0x3e0b48ac	0.13601941
138	0xbe43ba90	-0.19114137
139	0xbdb3f9df	-0.087878935
140	0x3d3a75e5	0.04552259
141	0xbdd7f4e7	-0.10544758
142	0xbe371c86	-0.17881975
143	0x3f0ef524	0.55842805
144	0x3e860961	0.2617903
145	0x3e084481	0.13307382
146	0xbcdceed5	-0.026969353
147	0x3c007cf5	0.007842292
148	0xbdff09d6	-0.12453048
149	0xbf1e41ec	-0.6181934
150	0xbe2ff487	-0.17183124
151	0xbec20255	-0.37892404
152	0xbe64f918	-0.22360647
153	0x3e9156a6	0.2838642
154	0x3e79a1d0	0.24378133
155	0xbe486429	-0.19569458
156	0xbce62724	-0.028094836
157	0xbe9bcdcb	-0.30430445
158	0xbd1f3a18	-0.038873762
159	0xbdbf40bd	-0.0933852
160	0x3e0d1e38	0.13781059
161	0x3e4d1b2c	0.20029896
162	0x3d88e24b	0.06683787
163	0x3dc4f35a	0.09616728
164	0xbd8fff00	-0.07031059
165	0x3ea96baf	0.3308997
166	0x3e7199fa	0.23593894
167	0xbb54fea0	-0.00325004
168	0x3e4ea5be	0.20180413
169	0x3d2b90c1	0.041886095
170	0x3d058488	0.032597095
171	0x3e3b1061	0.18267967
172	0x3e2d3ce2	0.16917756
173	0xbd70c3c9	-0.058780465
174	0xbe721fbf	-0.23644923
175	0xbee23f5d	-0.44188967
176	0x3e05816d	0.13037653
177	0x3dc425f7	0.09577554
178	0xbe8fc757	-0.28081772
179	0x3ea2bf18	0.31786418
180	0x3e957d1f	0.29197022
181	0xbe142544	-0.1446734
182	0x3e9ac21f	0.30226228
183	0xbca4e3c5	-0.02012814
184	0xbf2a8ddd	-0.66622716
185	0x3f125b54	0.57170606
186	0xbf18b147	-0.59645504
187	0xbd07ecb9	-0.03318474
188	0xbd6776ce	-0.056509785
189	0x3e918a82	0.28425986
190	0xbe007d64	-0.12547833
191	0xbeb24a3a	-0.34822255
192	0xbd1b9985	-0.037988205
193	0x3e13bdf6	0.14427933
194	0xbe45bea0	-0.19310999
195	0xbeeb5e19	-0.45970228
196	0x3e871c10	0.26388597
197	0x3d90af75	0.07064716
198	0xbe5dd843	-0.21664529
199	0xbdada28a	-0.084782675
200	0x3e014b23	0.12626319
201	0x3ea741f4	0.32667506
202	0xbede2699	-0.43388823
203	0xbe0f6f34	-0.14007264
204	0x3e6a6cd1	0.22893073
205	0x3dc3f931	0.09569014
206	0xbe8c6b34	-0.2742554
207	0x3f2d8a65	0.677893
208	0x3d81a311	0.063299306
209	0x3d10055a	0.035161354
210	0xbe85ebd8	-0.26156497
211	0xbc9a2d7c	-0.018820517
212	0x3f07bfc2	0.53026974
213	0x3e115d9f	0.1419587
214	0xbdf6fc19	-0.120598026
215	0x3cd27efb	0.025695315
216	0xbe123231	-0.14276959
217	0xbeb13555	-0.34611002
218	0x3e591837	0.21200643
219	0xbe8a4556	-0.27006024
220	0x3e986c85	0.29770294
221	0x3dbeffdc	0.09326145
222	0x3cf01dea	0.02931114
223	0x3e2f9329	0.17145981
224	0x3ddeab37	0.108725004
225	0xbc9744e7	-0.018465472
226	0xbe9872af	-0.29774997
227	0xbe883d2f	-0.2660918
228	0x3e184d65	0.14873274
229	0xbda7544d	-0.08170376
230	0x3d4d40d4	0.050110653
231	0xbe3af38e	-0.18256971
232	0x3ecd9545	0.40152946
233	0xbe8728f3	-0.2639843
234	0x3dfa9380	0.12235165
235	0xbf087746	-0.53306997
236	0xbe02b5b5	-0.12764628
237	0x3e28eaf8	0.16495883
238	0xbcbc5719	-0.02299075
239	0x3d35f5b7	0.044423785
240	0xbac410b2	-0.0014958589
241	0x3e1eccef	0.15507863
242	0xbe6c6d7d	-0.23088641
243	0xbe9ef210	-0.31044054
244	0xbea24736	-0.31694955
245	0x3e29d8fa	0.16586676
246	0xbd868554	-0.06568399
247	0xbde908fa	-0.11378665
248	0xbea9157b	-0.330242
249	0x3e07f524	0.13277107
250	0xbe84edbf	-0.25962636
251	0xbda2562e	-0.07926594
252	0xbdb9d04b	-0.09072932
253	0xbdb0e295	-0.08636967
254	0xbea65640	-0.3248768
255	0xbe5f053c	-0.2177934

lstm.bias_ih_l1 f4 [512]
0	0xbeacaa57	-0.3372371
1	0xbe13beb1	-0.14428212
2	0x3dd3e831	0.10347021
3	0x3db530ec	0.08847222
4	0x3df4d7f6	0.11955254
5	0xbe125ec9	-0.1429397
6	0xbda3790f	-0.079820745
7	0xbe3bf1ff	-0.18354033
8	0xbbe375bb	-0.006941525
9	0xbe2c1bfc	-0.1680755
10	0x3ccfae7c	0.025351755
11	0x3d351fb7	0.0442197
12	0xbe08798b	-0.13327615
13	0xbe3f83a2	-0.18702558
14	0x3d220377	0.039554086
15	0xbd9e25f8	-0.07722086
16	0xbd4fb17f	-0.050706383
17	0xbe99fc21	-0.30075172
18	0xbe0e13a8	-0.13874686
19	0xbe27a1a9	-0.16370262
20	0xbe1a4438	-0.15065086
21	0xbd991b7c	-0.07475945
22	0xbddb40d2	-0.10705723
23	0xbcab75a4	-0.020930119
24	0xbe46992d	-0.1939437
25	0xbe4fb492	-0.20283726
26	0xbe08efe6	-0.13372764
27	0xbe8c942c	-0.27456796
28	0xbdffaacb	-0.12483748
29	0xbe30f47d	-0.17280765
30	0xbe31c3ad	-0.173598
31	0x3b039d56	0.0020082793
32	0xbe11f39c	-0.14253086
33	0x3ceafaa8	0.028683975
34	0x3d5909e9	0.052987967
35	0x3ea16c01	0.31527713
36	0xbe216f61	-0.15765144
37	0x3da14729	0.07874901
38	0x3cfd9b94	0.030957974
39	0x3da7d520	0.08194947
40	0xbdb243e8	-0.08704358
41	0xbdcf93da	-0.10135622
42	0x3d6570ec	0.056015894
43	0xbd8d74c2	-0.069070354
44	0x3d68ce67	0.056837466
45	0xbe8adff8	-0.27124
46	0x3e437888	0.19088948
47	0x3cb1a269	0.021683889
48	0xbe0e867c	-0.13918489
49	0xbd7caf39	-0.061690543
50	0xbd9bff25	-0.07617024
51	0xbd1872de	-0.03721892
52	0xbec19bd8	-0.37814212
53	0xbd676c22	-0.056499608
54	0xbe0ab0a5	-0.13543947
55	0xbdf70472	-0.12061395
56	0xbce9ff6f	-0.028564183
57	0xbd9b7053	-0.075897835
58	0x3e653bdc	0.22386116
59	0xbe87e78a	-0.26543838
60	0xbd9a0da4	-0.07522133
61	0xbe36cb45	-0.17850979
62	0xbe5f0d2a	-0.21782365
63	0x3d88781d	0.06663535
64	0x3e2808c3	0.16409592
65	0xbe85b83a	-0.26117116
66	0xbe37f050	-0.17962766
67	0xbdb2de48	-0.08733803
68	0xbd50c941	-0.05097318
69	0x3dd7f8b9	0.10545487
70	0x3c038c2e	0.008029027
71	0xbebbd72a	-0.36687595
72	0xbe26b021	-0.16278125
73	0xbda39f69	-0.079893894
74	0xbbb23038	-0.005437877
75	0xbda28755	-0.07935969
76	0xbe08bb65	-0.13352735
77	0xbc4bbbbd	-0.012434897
78	0xbe66c912	-0.2253764
79	0x3d131b55	0.035914738
80	0xbe19f4a8	-0.15034735
81	0xbd327522	-0.043568738
82	0xbe921a3a	-0.28535634
83	0xbe4d2871	-0.20034958
84	0x3e360a76	0.17777428
85	0xbd82059c	-0.06348726
86	0xbe436fba	-0.19085589
87	0x3d0ce6e6	0.03439989
88	0x3b871782	0.0041226754
89	0xbe0ed91c	-0.13950008
90	0xbe062845	-0.13101299
91	0xbd779692	-0.06044633
92	0xbe948350	-0.29006433
93	0xbe8e17c5	-0.2775251
94	0xbd1643f9	-0.036685918
95	0xbe952dcf	-0.29136512
96	0xbd96bf3f	-0.07360696
97	0xbd1a27bc	-0.03763555
98	0xbcd245ef	-0.025668113
99	0xbe2a9369	-0.16657795
100	0xbe796213	-0.24353819
101	0xbe91df26	-0.2849056
102	0x3cffbbc9	0.031217473
103	0xbe4679eb	-0.19382446
104	0xbd94f728	-0.07273704
105	0xbb95f0ab	-0.004575809
106	0xbbfa0331	-0.007629775
107	0xbcdd6e18	-0.027030036
108	0x3bd9767e	0.00663644
109	0x3dcb0069	0.099121876
110	0x3c715638	0.014730029
111	0xbc705227	-0.014668024
112	0xbe0b0acf	-0.13578342
113	0xbdc3d348	-0.09561783
114	0xbe791671	-0.24324967
115	0xbe28311a	-0.16424981
116	0xbe0975dd	-0.13423868
117	0x3dff216f	0.12457549
118	0xbd1025a8	-0.03519216
119	0xbe768371	-0.24073578
120	0xbe37d882	-0.17953685
121	0x3c503880	0.012708783
122	0xbdf6c010	-0.12048352
123	0xbe30c7f8	-0.17263782
124	0x3c8bf147	0.017082823
125	0xbd65e608	-0.056127578
126	0xbe046d0d	-0.12932225
127	0xbda37f71	-0.07983292
128	0x3b846f85	0.0040416145
129	0xbc90a481	-0.017656567
130	0x3e7c0f44	0.24615198
131	0x3c9fb65e	0.01949614
132	0xbe5e1d9f	-0.21690987
133	0xbd06dd12	-0.032925673
134	0xbe1be040	-0.15222263
135	0x3e411871	0.1885698
136	0x3e497799	0.19674529
137	0xbe21d371	-0.15803315
138	0x3dc859be	0.09782742
139	0x3e6c6526	0.2308546
140	0x3d3196de	0.04335677
141	0xbc59fefd	-0.013305423
142	0xbde03711	-0.10948003
143	0xbe596ad6	-0.21232161
144	0x3e840692	0.25786263
145	0xbd5750c2	-0.05256725
146	0xbe4ba591	-0.19887377
147	0x3db75efd	0.089536645
148	0xbda1ef90	-0.07907021
149	0xbcadf986	-0.021237146
150	0xbcb1242f	-0.021623699
151	0x3ead5f3e	0.33861727
152	0xbcaf3a25	-0.02139003
153	0x3ca983ae	0.020692673
154	0xbdae0db4	-0.084987074
155	0xbe546178	-0.20740306
156	0xbddee156	-0.10882823
157	0xbd17e025	-0.037078995
158	0x39a59e0c	0.00031589007
159	0xbd9b4d0f	-0.07583057
160	0x3d21dd4f	0.039517697
161	0xbca17c63	-0.019712633
162	0xbc946349	-0.01811375
163	0x3eb6d8d8	0.35712314
164	0xbdfa7740	-0.122297764
165	0xbd4f6608	-0.050634414
166	0x3dca0625	0.09864453
167	0x3e91322f	0.283586
168	0x3edca11b	0.43091664
169	0x3e736e2f	0.237725
170	0x3e0339fd	0.1281509
171	0x3dee4e64	0.116360456
172	0x3e285ff0	0.16442847
173	0xbe11947c	-0.14216799
174	0x3c9bebd8	0.019033358
175	0x3e47204a	0.19445911
176	0xbd438559	-0.047734592
177	0x3d8f2ffd	0.06991575
178	0x3daf7aa3	0.08568313
179	0xbdf2c250	-0.118534684
180	0x3c875214	0.01651863
181	0xbe400727	-0.18752728
182	0x3e8c7382	0.27431875
183	0x3d705237	0.058672156
184	0x3dff0772	0.12452592
185	0x3dc77998	0.09739989
186	0x3e07abde	0.13249156
187	0x3cafc4c6	0.021456134
188	0xbd7ac843	-0.06122614
189	0xbd16032b	-0.036624115
190	0xbcd9466a	-0.026522834
191	0xbc9ab8ad	-0.018886888
192	0x3e1a25b3	0.15053444
193	0xbe17f0d4	-0.14837962
194	0xbd552775	-0.052039582
195	0x3c928ed0	0.017890364
196	0xb9ef9895	-0.00045699315
197	0xbe401d35	-0.18761142
198	0x3c1dce36	0.009631684
199	0x3d90cef3	0.070707224
200	0xbdaa793f	-0.08323907
201	0x3e24699b	0.1605591
202	0xbe0ee4c4	-0.13954455
203	0xbe395eca	-0.18102565
204	0xbd26c0c9	-0.040711198
205	0x3e90717d	0.28211585
206	0xbde53989	-0.111926146
207	0x3e57f958	0.21091211
208	0xbc1f2ae8	-0.0097148195
209	0x3db2d752	0.08732475
210	0xbb3211c6	-0.0027171238
211	0xbe0da760	-0.1383338
212	0x3e1d8fdb	0.15386908
213	0x3e2fc54f	0.17165111
214	0x3e62720d	0.2211382
215	0x3e49cf2e	0.19707939
216	0x3de238ce	0.11045991
217	0x3da5efce	0.0810238
218	0x3eaea11f	0.341073
219	0x3d5d8d96	0.054090105
220	0xbe329c39	-0.17442407
221	0x3e1338e9	0.14377178
222	0x3d87c754	0.06629816
223	0x3dbe92e1	0.09305359
224	0xbd1dba97	-0.038508024
225	0xbdd15235	-0.10220758
226	0xbe4ee6c9	-0.20205225
227	0xbe4c5f06	-0.19958124
228	0xbca166a9	-0.019702272
229	0xbe78c072	-0.24292162
230	0x3d639382	0.055560596
231	0xbe2e2647	-0.17006789
232	0xbe909219	-0.28236464
233	0x3ed0b222	0.40760905
234	0x3c904d8f	0.017615108
235	0xbe5b6906	-0.21426782
236	0x3e633666	0.2218872
237	0x3f056195	0.52102023
238	0xbdd6bd18	-0.104852855
239	0x3e428adb	0.18998282
240	0x3e473ace	0.19456026
241	0xbdb9e8fb	-0.090776406
242	0x3cca21db	0.024674347
243	0xbe36d19e	-0.178534
244	0xbca31dd1	-0.019911679
245	0x3e8a6cdd	0.2703618
246	0x3c6fca5c	0.014635649
247	0xbe505b72	-0.20347384
248	0xbd91931f	-0.07108139
249	0x3d9fa08e	0.07794295
250	0xbe04c386	-0.12965211
251	0x3dcf84fe	0.10132788
252	0x3c230060	0.00994882
253	0xbd4807fb	-0.048835736
254	0xbe04f30a	-0.12983337
255	0x3e54794d	0.20749398
